my_msltd_montreal/gcrnn_model.pt (torch, 318597 bytes, 10 tensors)

cell.gc_z.W f4 [69, 64]
00000000: 7a51 213d ea67 6fbe 4822 9cbf 90cb fabe
00000010: febc 033e 1531 cfbe 8a0c 9f3f 04a0 193e
00000020: 9428 ca3e 09ca e7be 6526 0fbf 02d7 7fbe
00000030: fc99 22be a4ee 20bf 4c34 84bf e95f 183f
00000040: 9b7e 613e 0793 3e3e fa84 cdbe 9252 fd3c
00000050: dcd0 65be c064 97be 3c86 8abf f9d5 0ebd
00000060: f2e1 07bf 7d9f 8dbe 17a6 823e 1b5d 873e
00000070: 122a 99be cdd7 13bf 528d 18bf b692 02be
00000080: 1b83 a3be 4b01 cebe 1eed d93e 52c2 b63b
00000090: f44e 94be a85e 7cbf f1df 9cbd 6eea 9f3e
000000a0: 1dc4 1fbf c842 91bd 04f9 cdbe a804 9b3d
000000b0: 4a37 1cbe ce3e c8be 96b2 853e 0ec7 90bf
000000c0: 1ece 4cbf 248b 163e 4039 24bf e5a9 0540
000000d0: 8715 2c3e ad0b 32bd 6955 c03e 4d73 08bf
000000e0: 304e f4bd e023 a83d ae24 923d 1556 aebe
000000f0: 92e2 06be 2d6a febe af80 bfbe bf83 8bbf
00000100: cddb ccbd e722 2d3f 8404 173c fd0d e93d
00000110: 0295 8bbe 9e4f 333e f9d1 fd3c 50ea 063e
00000120: 7e33 a63e 0337 20bf 4a1c 00bd 83b7 b3be
00000130: 06f9 b83e 4547 ab3d 572b 533e dad1 4b3e
00000140: f42e 653e 4682 e73e e5ad e73d 919e fabd
00000150: 9f19 e2be 6844 f5bd 31c1 77be 02ef c03e
00000160: a90f b0bb b287 14be 440b 4abe 5a89 a6be
00000170: 44d6 77bd aa17 60bb 0cf6 3a3e 8653 1fbe
00000180: 9443 cbbd 0dd5 bfbd 913b 0dbf f2b2 2cbe
00000190: ecc8 72be ccb7 6cbe cc8a c2bd 6fc2 55bd
000001a0: 18c5 4ebe d0e5 613e 9e12 5bbd 3d6a 3c3e
000001b0: cd61 e83d cf7e ac3e 368f 95bd 51dc 76bc
000001c0: b95b 613d d27a 0cbd 837f 173f 6c97 2c3e
000001d0: d22e 8a3e e5e7 4ebe e509 03bf 51e3 533d
000001e0: e1b6 9c3d 345f 7c3c 486f f5bd 4c8b 5d3e
000001f0: 05fc b3bd 7a66 223e 53a1 463d 0246 debd
00000200: 44aa b53e 1e62 123f 2891 e239 3e2f 7f3d
00000210: 87c0 193f 2a56 0bbe 1f02 6abd 4916 bd3c
00000220: fff7 fa3c 4372 723e 8f9f 01bd 65cc 89be
00000230: 0b7b e9bd 8513 923d 47ae 7c3e bbc2 0abe
00000240: 4773 dc3d 6026 e7be 29cd ff3c 89c3 88be
00000250: 71d1 87bc 1f59 9dbd 01ff 873d 456e 2c3e
00000260: b3a6 253d 525e 1b3e d035 ec3d 2550 b6be
00000270: 70d8 abbd 9a67 bc3c 870b f8bc 3ea5 14bd
00000280: 1559 073e 6ef6 9cbd a593 96be db6a e0bd
00000290: 7245 38bd 69c3 243d 5664 213d 8335 41be
000002a0: 677c 5f3c 2c36 95be cbd5 583d 5310 033e
000002b0: 7cbd 6b3e 2046 8dbe 559c be3c d43e 4ebe
000002c0: 07a3 d2bc cea9 4b3e b6a9 3abf 3a83 9bbe
000002d0: cc86 34bd b75c bcbe ce12 33be 7b2a 3fbe
000002e0: da66 3f3e bb88 22bc 9038 6c3d e8dc cbbc
000002f0: 3873 883d 9873 523d b4f5 3d3d 3cc0 baba
00000300: bd40 a93e 7c12 823d f75c 1d3d 29b4 703c
00000310: a8c0 373f 3b1f 283d fab9 9d3c b0df 88bd
00000320: c735 93be 6395 b4be a715 23be c33c 5b3e
00000330: 1e57 283e 8ea5 29bd 009c 66be 0378 fe3d
00000340: 5efb 37bc 2f0f 32be 917d 183e 5328 443c
00000350: 376e d23c ab4a 59bc d3fb 0cbe 4ee4 26be
00000360: db00 0bbc 1f2f 333e 4308 3e3e b6ac 89be
00000370: c03f 8a3e de8b 183d 741f d2bd 1ca3 a63c
00000380: 1917 e2bd 3ec2 973d a882 2939 55e6 1dbe
00000390: 0462 983c c088 b6bd 4e6a fbbd e07b a7bd
000003a0: 963d 5d3d e4c0 cb3d 035e 99bb a098 adbd
000003b0: 0ba3 49be f92a 8dbd da40 0fbd c89b 07be
000003c0: 4f3b 563d 2cf1 af3b c8db d83d 837b b2bc
000003d0: 9f10 8e3e dbb2 1fbd 549c d9bd 356f d53d
000003e0: bb6b b43a 39b9 04bc b089 c73e ca77 9ebe
000003f0: 387f 423d f8e9 54be 8cf7 333d f473 df3d
0.039384343 -0.23379484 -1.2197962 -0.4898343 0.12865064 -0.40467134 1.2425702 0.15002447
0.39484084 -0.45271328 -0.5591796 -0.24984363 -0.15879053 -0.62864137 -1.032846 0.5952135
0.22020952 0.18610774 -0.40140516 0.030923162 -0.22442955 -0.29569054 -1.0822215 -0.03487203
-0.5307914 -0.27660742 0.25517341 0.2643822 -0.2991491 -0.5775116 -0.5959064 -0.12751278
-0.31935963 -0.4023536 0.4256372 0.005577364 -0.28966486 -0.98581934 -0.07659901 0.31233543
-0.6240862 -0.07092816 -0.40229046 0.075692475 -0.15255466 -0.39110416 0.26112813 -1.1310747
-0.8000201 0.14701515 -0.64149857 2.0884945 0.16805087 -0.043468166 0.37565163 -0.53300935
-0.119289756 0.082099676 0.07135902 -0.3405005 -0.13172367 -0.4969038 -0.37402865 -1.0899581
-0.10002861 0.6763138 0.009217385 0.11379621 -0.2726212 0.1751084 0.030983912 0.1317532
0.3246116 -0.6258394 -0.03127698 -0.35100946 0.3612749 0.08363203 0.20622002 0.19904271
0.22381192 0.45216578 0.113124646 -0.122372754 -0.44160172 -0.11975938 -0.2419479 0.37682348
-0.0053729606 -0.14504889 -0.1973086 -0.32526666 -0.060507074 -0.0034193792 0.18257922 -0.15559205
-0.09924999 -0.09366808 -0.55169016 -0.16865137 -0.23709458 -0.23116988 -0.0949913 -0.05218738
-0.20192373 0.22060323 -0.05348455 0.18399902 0.11346779 0.33690497 -0.07302706 -0.015067176
0.055019114 -0.034296818 0.5917894 0.16854638 0.26988846 -0.20205648 -0.5118697 0.051730458
0.07652069 0.015403558 -0.11984116 0.21635169 -0.08788303 0.15859404 0.048493695 -0.10853197
0.35481465 0.57180965 0.0004321423 0.062300913 0.600594 -0.13607088 -0.05713093 0.023081915
0.030635832 0.236764 -0.031646308 -0.26913753 -0.11400422 0.07132629 0.24675857 -0.13550846
0.10764175 -0.45146465 0.031225758 -0.2671168 -0.016579362 -0.07683014 0.06640435 0.1683894
0.04044218 0.15172699 0.115337014 -0.3560802 -0.083908916 0.02299862 -0.030278934 -0.0362904
0.13217576 -0.0766419 -0.2940952 -0.10957881 -0.044988103 0.04022542 0.03940233 -0.1886807
0.0136405 -0.29142892 0.052938264 0.12799196 0.23021501 -0.27592564 0.023267904 -0.20141155
-0.025712503 0.19888994 -0.7291521 -0.30373555 -0.044073865 -0.36789486 -0.17487642 -0.18668549
0.18691579 -0.009920294 0.05767113 -0.02488561 0.06662601 0.05137977 0.0463769 -0.0014247964
0.33057204 0.06351182 0.038418736 0.014691391 0.71778345 0.04104541 0.01925372 -0.0668329
-0.28751966 -0.35270223 -0.15926228 0.21409898 0.16439483 -0.04141765 -0.22520447 0.12425234
-0.011229364 -0.17388605 0.1489165 0.011972505 0.02568732 -0.013262431 -0.13767938 -0.16298029
-0.008484091 0.17498444 0.18557839 -0.2688958 0.27001762 0.037242763 -0.102599055 0.020341448
-0.11039562 0.07410096 0.00016165769 -0.15419896 0.018601425 -0.08912802 -0.122761354 -0.08177924
0.05401381 0.099489 -0.0046803965 -0.084763765 -0.19691102 -0.06892962 -0.034973957 -0.1324302
0.052302655 0.005369326 0.10588795 -0.02178741 0.27747056 -0.03898893 -0.1062552 0.10421602
0.0013765016 -0.008100801 0.38972235 -0.30950767 0.047484607 -0.20792377 0.04393725 0.10910788

cell.gc_z.bias f4 [64]
00000000: da8c 45be 4687 bdbe 766a 8b3d c21b c13e
00000010: 5a52 ed3e 50d1 3bbd 520b 80be 2c20 81be
00000020: 1683 91be fe4d 02be f386 11be b6cf 94be
00000030: 39b3 29be 29fd 04bd 137f 2abe 998d 13be
00000040: fa9f babe 233f 8ebd 5380 7bbd cdb3 16be
00000050: 91f1 ddbd 5308 51be d998 983e 051b c6be
00000060: 53a0 07be 2e79 903e 9b8c 89be d9f1 a6be
00000070: 6300 9abe c022 2b3e b582 433e 546b c0bb
00000080: cd04 86be 50ce 413e d8fa c5be 073b 81be
00000090: 6897 dabd c6d1 68bd a1db 86bd 7d0f f8bd
000000a0: 746f 13be 2b9e 1b3d 2937 0cbe 27c9 863e
000000b0: 29aa cd3d ba47 fabd 0d22 c1bd 9c1a 0c3e
000000c0: 6260 29be a2fa 68bd 5e41 f63c 369b debd
000000d0: 9b13 37be a6b0 2a3d 3726 f4bd 60da 583e
000000e0: 48d2 37be f005 6dbb 74cf 45be 8124 18be
000000f0: c4b1 8fbd 20ae d73c f20a 62bd 8d23 1b3e
-0.19292012 -0.37017268 0.06807415 0.3771649 0.46351892 -0.045853913 -0.25008637 -0.25219858
-0.28420323 -0.12725064 -0.14211635 -0.2906472 -0.16572274 -0.032467995 -0.16650037 -0.14409484
-0.36450177 -0.06945636 -0.061401676 -0.14717026 -0.10837091 -0.20413332 0.29804114 -0.3869249
-0.13244753 0.28217453 -0.26865086 -0.3260639 -0.3007842 0.16712475 0.1909283 -0.0058721695
-0.26175538 0.18926358 -0.3866794 -0.25240347 -0.1067341 -0.05684068 -0.0658486 -0.12112329
-0.14397985 0.037992638 -0.13692917 0.26325342 0.10042221 -0.12220712 -0.09430323 0.13682026
-0.16540673 -0.056879647 0.030060466 -0.10869448 -0.17878573 0.04167237 -0.119213514 0.21177053
-0.1795131 -0.003616687 -0.19317418 -0.14857675 -0.07016328 0.026328146 -0.05518622 0.1515028

cell.gc_z.A_hat f4 [255, 255]
00000000: aaaa 2a3f 0000 0000 0000 0000 0000 0000
00000010: 0000 0000 0000 0000 0000 0000 0000 0000
00000020: 0000 0000 0000 0000 0000 0000 0000 0000
00000030: 0000 0000 0000 0000 0000 0000 0000 0000
00000040: 0000 0000 0000 0000 0000 0000 0000 0000
00000050: 0000 0000 0000 0000 0000 0000 0000 0000
00000060: 0000 0000 0000 0000 0000 0000 0000 0000
00000070: 0000 0000 0000 0000 0000 0000 0000 0000
00000080: 0000 0000 0000 0000 0000 0000 0000 0000
00000090: 0000 0000 0000 0000 0000 0000 0000 0000
000000a0: 0000 0000 0000 0000 0000 0000 0000 0000
000000b0: 0000 0000 0000 0000 0000 0000 0000 0000
000000c0: 0000 0000 0000 0000 0000 0000 0000 0000
000000d0: 0000 0000 0000 0000 0000 0000 0000 0000
000000e0: 0000 0000 0000 0000 0000 0000 0000 0000
000000f0: 0000 0000 0000 0000 0000 0000 0000 0000
00000100: 0000 0000 0000 0000 0000 0000 0000 0000
00000110: 0000 0000 0000 0000 0000 0000 0000 0000
00000120: 0000 0000 0000 0000 0000 0000 0000 0000
00000130: 0000 0000 0000 0000 0000 0000 0000 0000
00000140: 0000 0000 0000 0000 0000 0000 0000 0000
00000150: 0000 0000 0000 0000 0000 0000 0000 0000
00000160: 0000 0000 0000 0000 0000 0000 0000 0000
00000170: 0000 0000 0000 0000 0000 0000 0000 0000
00000180: 0000 0000 0000 0000 0000 0000 0000 0000
00000190: 0000 0000 0000 0000 0000 0000 0000 0000
000001a0: 0000 0000 0000 0000 0000 0000 0000 0000
000001b0: 0000 0000 0000 0000 0000 0000 0000 0000
000001c0: 0000 0000 0000 0000 0000 0000 0000 0000
000001d0: 0000 0000 0000 0000 0000 0000 0000 0000
000001e0: 0000 0000 0000 0000 0000 0000 0000 0000
000001f0: 0000 0000 0000 0000 0000 0000 0000 0000
00000200: 0000 0000 0000 0000 0000 0000 0000 0000
00000210: 0000 0000 0000 0000 0000 0000 0000 0000
00000220: 0000 0000 0000 0000 0000 0000 0000 0000
00000230: 0000 0000 0000 0000 0000 0000 0000 0000
00000240: 0000 0000 0000 0000 0000 0000 0000 0000
00000250: 0000 0000 0000 0000 0000 0000 0000 0000
00000260: 0000 0000 0000 0000 0000 0000 0000 0000
00000270: 0000 0000 0000 0000 0000 0000 0000 0000
00000280: 0000 0000 0000 0000 0000 0000 0000 0000
00000290: 0000 0000 0000 0000 0000 0000 0000 0000
000002a0: 0000 0000 0000 0000 0000 0000 0000 0000
000002b0: 0000 0000 0000 0000 0000 0000 0000 0000
000002c0: 0000 0000 0000 0000 0000 0000 0000 0000
000002d0: 0000 0000 0000 0000 0000 0000 0000 0000
000002e0: 0000 0000 0000 0000 0000 0000 0000 0000
000002f0: 0000 0000 0000 0000 0000 0000 0000 0000
00000300: 0000 0000 0000 0000 0000 0000 0000 0000
00000310: 0000 0000 0000 0000 0000 0000 0000 0000
00000320: 0000 0000 0000 0000 0000 0000 0000 0000
00000330: 0000 0000 0000 0000 0000 0000 0000 0000
00000340: 0000 0000 0000 0000 0000 0000 0000 0000
00000350: 0000 0000 0000 0000 0000 0000 0000 0000
00000360: 0000 0000 0000 0000 0000 0000 0000 0000
00000370: 0000 0000 0000 0000 0000 0000 0000 0000
00000380: 0000 0000 0000 0000 0000 0000 0000 0000
00000390: 0000 0000 0000 0000 0000 0000 0000 0000
000003a0: 0000 0000 0000 0000 0000 0000 0000 0000
000003b0: 0000 0000 aaaa aa3e 0000 0000 0000 0000
000003c0: 0000 0000 0000 0000 0000 0000 0000 0000
000003d0: 0000 0000 0000 0000 0000 0000 0000 0000
000003e0: 0000 0000 0000 0000 0000 0000 0000 0000
000003f0: 0000 0000 0000 0000 0000 0000 0000 0000
0.6666666 0.0 0.0 0.0 0.0 0.0 0.0 0.0
0.0 0.0 0.0 0.0 0.0 0.0 0.0 0.0
0.0 0.0 0.0 0.0 0.0 0.0 0.0 0.0
0.0 0.0 0.0 0.0 0.0 0.0 0.0 0.0
0.0 0.0 0.0 0.0 0.0 0.0 0.0 0.0
0.0 0.0 0.0 0.0 0.0 0.0 0.0 0.0
0.0 0.0 0.0 0.0 0.0 0.0 0.0 0.0
0.0 0.0 0.0 0.0 0.0 0.0 0.0 0.0
0.0 0.0 0.0 0.0 0.0 0.0 0.0 0.0
0.0 0.0 0.0 0.0 0.0 0.0 0.0 0.0
0.0 0.0 0.0 0.0 0.0 0.0 0.0 0.0
0.0 0.0 0.0 0.0 0.0 0.0 0.0 0.0
0.0 0.0 0.0 0.0 0.0 0.0 0.0 0.0
0.0 0.0 0.0 0.0 0.0 0.0 0.0 0.0
0.0 0.0 0.0 0.0 0.0 0.0 0.0 0.0
0.0 0.0 0.0 0.0 0.0 0.0 0.0 0.0
0.0 0.0 0.0 0.0 0.0 0.0 0.0 0.0
0.0 0.0 0.0 0.0 0.0 0.0 0.0 0.0
0.0 0.0 0.0 0.0 0.0 0.0 0.0 0.0
0.0 0.0 0.0 0.0 0.0 0.0 0.0 0.0
0.0 0.0 0.0 0.0 0.0 0.0 0.0 0.0
0.0 0.0 0.0 0.0 0.0 0.0 0.0 0.0
0.0 0.0 0.0 0.0 0.0 0.0 0.0 0.0
0.0 0.0 0.0 0.0 0.0 0.0 0.0 0.0
0.0 0.0 0.0 0.0 0.0 0.0 0.0 0.0
0.0 0.0 0.0 0.0 0.0 0.0 0.0 0.0
0.0 0.0 0.0 0.0 0.0 0.0 0.0 0.0
0.0 0.0 0.0 0.0 0.0 0.0 0.0 0.0
0.0 0.0 0.0 0.0 0.0 0.0 0.0 0.0
0.0 0.0 0.0 0.0 0.0 0.3333333 0.0 0.0
0.0 0.0 0.0 0.0 0.0 0.0 0.0 0.0
0.0 0.0 0.0 0.0 0.0 0.0 0.0 0.0

cell.gc_r.W f4 [69, 64]
00000000: 972d b53d 9785 02be 11f7 303f 8a6e fa3e
00000010: 9485 44be 5830 393f e9e2 da3e 78c3 733e
00000020: 1eda 973e b805 193f c9c8 a93f 2697 c83e
00000030: e787 003f fca0 633f 5b66 9bbe 7e7b b0be
00000040: ae4c 313f 2569 00be fb7a a43c 6634 2b3f
00000050: 46d2 263f 2932 bc3e 3e7d 42bf 5815 423f
00000060: 088e c33e 1c99 803e 7862 8bbf 3a75 2d3f
00000070: 685a bd3e e4fe 573f 3547 783f 1a1d a43f
00000080: 3fb8 d03e 3b44 383f 5192 6e3e 31ac 4abf
00000090: 500b aa3e cfaf 00bf 0c53 58bf a28e 093d
000000a0: 5ed5 cabe 5d59 223f d97e 303f 6ef0 4e3f
000000b0: b8b9 b2bc 85fb 12bf ecdb 413f 5803 26bf
000000c0: 2078 96be ce83 563e 6fdb aa3d 3c14 ec3e
000000d0: e7d6 48bf 2031 e03e 86c7 393f 0fce b23e
000000e0: a79d 653f afd5 d43e 19a0 613d 8fe4 233f
000000f0: d71c 383c 11a9 60bf af12 46bf 8812 12bf
00000100: 3813 b1be 1927 f03e 71f7 373d c43a a73e
00000110: 21e0 f1bd bd9e f4ba 77c6 12bc 1e4d 563e
00000120: 33d9 2d3e 36b4 c6be 288f c63e 81c8 cb3c
00000130: 394a 213e 0b39 28be 4e7c 45bd 97a1 b3bd
00000140: f28e 90bd 6fec 31be 673f 9c3d b514 c83c
00000150: a83a c0bd c39e a93e f92f 72bd e1df 51bd
00000160: c9d0 34bc fb15 463e 7ed4 3cbe 6fc2 26bd
00000170: 7563 93be af1c dfbd 9e2c 083c 8d3e 9c3d
00000180: 4800 3fbe 1460 47bd 79d2 d63d ecf6 f53d
00000190: 5152 143e 0a7a d8bd 0546 30be 4cf5 9f3c
000001a0: 5559 c53d 0591 5b3e aa7d 7a3e 7945 123e
000001b0: e3be b53e 0eae 843d f996 063e cc84 febc
000001c0: 421f 99bc a693 c43e 7bc3 5bbc b050 4d3e
000001d0: 929b d2bd fbab 64be 5215 333e e765 a43e
000001e0: 17d2 3c3d fec1 80be dfd3 733d f6e3 593e
000001f0: 3aba 583e 6023 a83d ab92 273e 72ce fbbb
00000200: 0c43 283d fd69 fcbe ee0c 03bd caa1 95bd
00000210: 4d20 c7bd 4379 71bd b9db 7d3e 0086 a13d
00000220: c0aa 20be 762c 0f3e 7d63 4d3d d727 e23d
00000230: 0764 8d3d dab2 40be 9c37 233e 38e8 153e
00000240: 6a44 1a3e ab83 253e 205e 033e 02a3 4bbd
00000250: 55ef a5bd 9608 113d 2258 86bd 137a 94bd
00000260: 7b95 043e b79e cb3d 9af4 c73d bd32 043d
00000270: 1f2e 4abe 7a59 4dbd b2ab 303e b1eb 5a3c
00000280: 8dcf 9ebc 9a50 943e 3f28 5c3d 10df b53e
00000290: 7a46 003c 4600 373d 90e9 1d3e 3c70 6e3c
000002a0: ee85 55bc 57c4 b5bd b6b8 72be 90b0 d4bc
000002b0: 8b15 1abe b8fe 003e 9804 89bd d0b8 a53d
000002c0: 4444 773e 89f4 4d3c 80f2 d23e f0dc 08bd
000002d0: 3938 d7be d2a6 7dbe 5aeb 963b 7e01 25be
000002e0: 59c8 9ebd 72cf ad3d 2cb5 9b3c 3a39 363d
000002f0: f68d 09be 9a2d ed3d dbff c53d 94ae 393e
00000300: af2b a03e 5fcd 343e 04df 8ebc 76c2 cebd
00000310: 26d2 c2bc 099e f3b8 0809 2cbe 4e0a 153e
00000320: 0ca5 a7bd cd84 683d 3101 533c b6fb 9f3d
00000330: 9424 d6bd 691d 1cbd f80c 8c3c 64dd 3fbd
00000340: 9e0c 10be 1e99 98bd acac 973d 4007 b7bd
00000350: 698c 023d c243 2d3e 1794 963d 1489 ec3d
00000360: 830c 4d3e 7f79 5b3d 69a8 e8bd 564f 1ebe
00000370: aa00 bcbd bc17 f03d f3ec a7bd 84a2 30be
00000380: a114 a43d cdc1 aebe 2783 1f3e 9618 f5be
00000390: 326a 0c3e 1bcf 2a3c ee87 c3bd ffda 2fbd
000003a0: 6703 62bd beeb 5b3e 5589 013d 6ec3 de3d
000003b0: 9d8a 0e3e 7228 cbbc a80c b33d 9be8 06be
000003c0: ae38 03be a3fe c73c 5c72 913e 8df1 553d
000003d0: 2a68 7dbe a0a7 fbbd 913f 20bc 76e4 cc3d
000003e0: bf39 20ba 7444 2bbd 57cd 8d3e 694e 123e
000003f0: 900d 083e 9581 53bd 3f61 753d 5693 0a3e
0.08846586 -0.12746273 0.69126993 0.4891246 -0.19191581 0.7233939 0.42751244 0.23805034
0.29658598 0.5977435 1.32644 0.39177817 0.5020737 0.8891752 -0.3035153 -0.34469217
0.6925763 -0.1254011 0.020078173 0.6687683 0.651646 0.3675702 -0.75972354 0.7581382
0.381943 0.25116813 -1.0889425 0.67757 0.36983037 0.8437331 0.96983653 1.2821381
0.4076557 0.7197911 0.23298003 -0.79168993 0.33211756 -0.5026826 -0.8450172 0.03358329
-0.3961591 0.6341761 0.68943554 0.80835617 -0.021817073 -0.5741504 0.757262 -0.6484885
-0.29388523 0.20948717 0.08342635 0.46109188 -0.78452915 0.4378748 0.72570074 0.34922835
0.89693683 0.41569278 0.05508432 0.6402063 0.011237345 -0.87757975 -0.7737226 -0.57059526
-0.34584975 0.4690483 0.044913713 0.32662022 -0.11810327 -0.001866303 -0.0089584505 0.20927855
0.16977386 -0.38809365 0.38781095 0.024875881 0.1575097 -0.1642801 -0.04821425 -0.08771055
-0.07058515 -0.17375349 0.076292805 0.024423936 -0.09386188 0.33128938 -0.05912778 -0.0512389
-0.011036106 0.19344322 -0.18440434 -0.04071277 -0.28786817 -0.10894143 0.008311419 0.07629118
-0.18652451 -0.04867561 0.10489363 0.12009987 0.14484526 -0.10570152 -0.1721421 0.019526146
0.09636179 0.2144204 0.24462 0.14284314 0.35497198 0.06478511 0.13143529 -0.031069182
-0.018691663 0.38393897 -0.013413305 0.20050311 -0.10283579 -0.2233123 0.17488602 0.32108995
0.046098795 -0.25148004 0.059528228 0.21278366 0.2116479 0.08209872 0.16364543 -0.0076845223
0.041079566 -0.49299613 -0.031994753 -0.073062494 -0.09722958 -0.058953535 0.24790849 0.078868866
-0.15690136 0.13981804 0.050143708 0.11042755 0.06903844 -0.18818226 0.15939182 0.14639366
0.1506516 0.16163509 0.12828875 -0.049716003 -0.081022896 0.03540858 -0.06559779 -0.07249846
0.12947647 0.09942382 0.09763451 0.03227495 -0.19744156 -0.05013416 0.17252997 0.013361857
-0.019386077 0.28967744 0.05374932 0.35521746 0.007829303 0.044677995 0.15421128 0.014553126
-0.01303242 -0.088753395 -0.23703274 -0.025963098 -0.1504728 0.12597167 -0.06690329 0.08091891
0.24147135 0.012570509 0.41200638 -0.033413827 -0.42035082 -0.24770668 0.004605693 -0.1611385
-0.07753057 0.08486833 0.019007288 0.04448817 -0.1343306 0.115809634 0.09667941 0.18133003
0.31283328 0.17656468 -0.017440327 -0.10095684 -0.023781847 -0.00011616579 -0.1680032 0.14554712
-0.08185777 0.056767274 0.012878702 0.07811682 -0.104561955 -0.038113985 0.017096028 -0.046841994
-0.14067313 -0.0745108 0.074059814 -0.0893693 0.031872187 0.16920379 0.07352465 0.11549583
0.20024304 0.053582665 -0.11360247 -0.15459952 -0.09179814 0.11723277 -0.08199491 -0.17249495
0.08011747 -0.34132233 0.15577374 -0.4787032 0.13712385 0.010425354 -0.09547411 -0.04293346
-0.055179026 0.21476647 0.03162511 0.10877119 0.13920064 -0.02479956 0.08742648 -0.1317467
-0.1281459 0.024413412 0.28407562 0.052232314 -0.24746767 -0.12287831 -0.00978078 0.10004513
-0.00061121205 -0.04181333 0.27695724 0.14287724 0.13286424 -0.05163725 0.059907194 0.13532767

cell.gc_r.bias f4 [64]
00000000: 58f0 673d 149e 073e 3694 833c 02d3 d33d
00000010: e8e7 4cbd 395c 5b3d 9d14 203c 7a4f ff3d
00000020: ebd2 303d 7211 ba3d 1105 d9be 2fdc 893d
00000030: f779 0f3e 256b 2b3d c66e 9e3d 2b93 173d
00000040: dc13 0abe 31a5 89bd b3e2 c93d ed39 5abc
00000050: 0736 b13d 331e f53d 5954 d43c 1926 5ebc
00000060: e6b3 dd3d 595f 073d d41b 9dbd 3d53 3dbd
00000070: cd2b cf3d cbc9 80be 275c e2bd 2cfa c2bd
00000080: 6199 ac3d 7f59 78bd da18 51bd c274 45be
00000090: 111f 46bd 400b 7a3d ea5a be3d a1aa 77bb
000000a0: 6aa3 183d ab33 0a3e d60b 27be 1950 79bc
000000b0: 5acf 8b3d 625a d13d 99c8 28bc 79cc 8a3d
000000c0: 965b 5f3d d830 c43d f2e2 3b3e de63 353a
000000d0: 7413 01be ba7e 573d 2f2f 2c3b 4313 95bc
000000e0: cdc4 e9bd e2ac be39 920b 8a3d 45ec 14bd
000000f0: 450b e83d af56 643d b7d4 e23b 5c8c c93d
0.056625694 0.13243896 0.016061883 0.10342981 -0.05002585 0.053554747 0.00977054 0.12466331
0.043169897 0.09085359 -0.42386678 0.0673145 0.1401137 0.041850228 0.07735972 0.037005585
-0.13484138 -0.06720961 0.098576926 -0.013319475 0.08652883 0.11968651 0.025919126 -0.013558888
0.108253285 0.033049915 -0.076713234 -0.04622196 0.10115776 -0.25153956 -0.11052733 -0.09520373
0.08427692 -0.060632225 -0.05104909 -0.19282821 -0.04836947 0.061045885 0.09294684 -0.0037790912
0.03726522 0.13496272 -0.16313109 -0.015216851 0.068266585 0.10222317 -0.010301732 0.06777281
0.054530703 0.09579629 0.18348292 0.00069194834 -0.12605077 0.05261109 0.002627324 -0.018197661
-0.1141449 0.00036368432 0.06740488 -0.036358137 0.113302745 0.05574673 0.0069223302 0.098412246

cell.gc_r.A_hat f4 [255, 255]
00000000: aaaa 2a3f 0000 0000 0000 0000 0000 0000
00000010: 0000 0000 0000 0000 0000 0000 0000 0000
00000020: 0000 0000 0000 0000 0000 0000 0000 0000
00000030: 0000 0000 0000 0000 0000 0000 0000 0000
00000040: 0000 0000 0000 0000 0000 0000 0000 0000
00000050: 0000 0000 0000 0000 0000 0000 0000 0000
00000060: 0000 0000 0000 0000 0000 0000 0000 0000
00000070: 0000 0000 0000 0000 0000 0000 0000 0000
00000080: 0000 0000 0000 0000 0000 0000 0000 0000
00000090: 0000 0000 0000 0000 0000 0000 0000 0000
000000a0: 0000 0000 0000 0000 0000 0000 0000 0000
000000b0: 0000 0000 0000 0000 0000 0000 0000 0000
000000c0: 0000 0000 0000 0000 0000 0000 0000 0000
000000d0: 0000 0000 0000 0000 0000 0000 0000 0000
000000e0: 0000 0000 0000 0000 0000 0000 0000 0000
000000f0: 0000 0000 0000 0000 0000 0000 0000 0000
00000100: 0000 0000 0000 0000 0000 0000 0000 0000
00000110: 0000 0000 0000 0000 0000 0000 0000 0000
00000120: 0000 0000 0000 0000 0000 0000 0000 0000
00000130: 0000 0000 0000 0000 0000 0000 0000 0000
00000140: 0000 0000 0000 0000 0000 0000 0000 0000
00000150: 0000 0000 0000 0000 0000 0000 0000 0000
00000160: 0000 0000 0000 0000 0000 0000 0000 0000
00000170: 0000 0000 0000 0000 0000 0000 0000 0000
00000180: 0000 0000 0000 0000 0000 0000 0000 0000
00000190: 0000 0000 0000 0000 0000 0000 0000 0000
000001a0: 0000 0000 0000 0000 0000 0000 0000 0000
000001b0: 0000 0000 0000 0000 0000 0000 0000 0000
000001c0: 0000 0000 0000 0000 0000 0000 0000 0000
000001d0: 0000 0000 0000 0000 0000 0000 0000 0000
000001e0: 0000 0000 0000 0000 0000 0000 0000 0000
000001f0: 0000 0000 0000 0000 0000 0000 0000 0000
00000200: 0000 0000 0000 0000 0000 0000 0000 0000
00000210: 0000 0000 0000 0000 0000 0000 0000 0000
00000220: 0000 0000 0000 0000 0000 0000 0000 0000
00000230: 0000 0000 0000 0000 0000 0000 0000 0000
00000240: 0000 0000 0000 0000 0000 0000 0000 0000
00000250: 0000 0000 0000 0000 0000 0000 0000 0000
00000260: 0000 0000 0000 0000 0000 0000 0000 0000
00000270: 0000 0000 0000 0000 0000 0000 0000 0000
00000280: 0000 0000 0000 0000 0000 0000 0000 0000
00000290: 0000 0000 0000 0000 0000 0000 0000 0000
000002a0: 0000 0000 0000 0000 0000 0000 0000 0000
000002b0: 0000 0000 0000 0000 0000 0000 0000 0000
000002c0: 0000 0000 0000 0000 0000 0000 0000 0000
000002d0: 0000 0000 0000 0000 0000 0000 0000 0000
000002e0: 0000 0000 0000 0000 0000 0000 0000 0000
000002f0: 0000 0000 0000 0000 0000 0000 0000 0000
00000300: 0000 0000 0000 0000 0000 0000 0000 0000
00000310: 0000 0000 0000 0000 0000 0000 0000 0000
00000320: 0000 0000 0000 0000 0000 0000 0000 0000
00000330: 0000 0000 0000 0000 0000 0000 0000 0000
00000340: 0000 0000 0000 0000 0000 0000 0000 0000
00000350: 0000 0000 0000 0000 0000 0000 0000 0000
00000360: 0000 0000 0000 0000 0000 0000 0000 0000
00000370: 0000 0000 0000 0000 0000 0000 0000 0000
00000380: 0000 0000 0000 0000 0000 0000 0000 0000
00000390: 0000 0000 0000 0000 0000 0000 0000 0000
000003a0: 0000 0000 0000 0000 0000 0000 0000 0000
000003b0: 0000 0000 aaaa aa3e 0000 0000 0000 0000
000003c0: 0000 0000 0000 0000 0000 0000 0000 0000
000003d0: 0000 0000 0000 0000 0000 0000 0000 0000
000003e0: 0000 0000 0000 0000 0000 0000 0000 0000
000003f0: 0000 0000 0000 0000 0000 0000 0000 0000
0.6666666 0.0 0.0 0.0 0.0 0.0 0.0 0.0
0.0 0.0 0.0 0.0 0.0 0.0 0.0 0.0
0.0 0.0 0.0 0.0 0.0 0.0 0.0 0.0
0.0 0.0 0.0 0.0 0.0 0.0 0.0 0.0
0.0 0.0 0.0 0.0 0.0 0.0 0.0 0.0
0.0 0.0 0.0 0.0 0.0 0.0 0.0 0.0
0.0 0.0 0.0 0.0 0.0 0.0 0.0 0.0
0.0 0.0 0.0 0.0 0.0 0.0 0.0 0.0
0.0 0.0 0.0 0.0 0.0 0.0 0.0 0.0
0.0 0.0 0.0 0.0 0.0 0.0 0.0 0.0
0.0 0.0 0.0 0.0 0.0 0.0 0.0 0.0
0.0 0.0 0.0 0.0 0.0 0.0 0.0 0.0
0.0 0.0 0.0 0.0 0.0 0.0 0.0 0.0
0.0 0.0 0.0 0.0 0.0 0.0 0.0 0.0
0.0 0.0 0.0 0.0 0.0 0.0 0.0 0.0
0.0 0.0 0.0 0.0 0.0 0.0 0.0 0.0
0.0 0.0 0.0 0.0 0.0 0.0 0.0 0.0
0.0 0.0 0.0 0.0 0.0 0.0 0.0 0.0
0.0 0.0 0.0 0.0 0.0 0.0 0.0 0.0
0.0 0.0 0.0 0.0 0.0 0.0 0.0 0.0
0.0 0.0 0.0 0.0 0.0 0.0 0.0 0.0
0.0 0.0 0.0 0.0 0.0 0.0 0.0 0.0
0.0 0.0 0.0 0.0 0.0 0.0 0.0 0.0
0.0 0.0 0.0 0.0 0.0 0.0 0.0 0.0
0.0 0.0 0.0 0.0 0.0 0.0 0.0 0.0
0.0 0.0 0.0 0.0 0.0 0.0 0.0 0.0
0.0 0.0 0.0 0.0 0.0 0.0 0.0 0.0
0.0 0.0 0.0 0.0 0.0 0.0 0.0 0.0
0.0 0.0 0.0 0.0 0.0 0.0 0.0 0.0
0.0 0.0 0.0 0.0 0.0 0.3333333 0.0 0.0
0.0 0.0 0.0 0.0 0.0 0.0 0.0 0.0
0.0 0.0 0.0 0.0 0.0 0.0 0.0 0.0

cell.gc_h.W f4 [69, 64]
00000000: 5ec6 543f 839b 14bf 34fc bbbf 69cf d1bf
00000010: 9308 8abe ac5f 94be 8db2 ebbe a089 dcbe
00000020: f122 9dbe 6c5f c43e fb40 d3bc 8fb3 6f3f
00000030: 798c 12bf fae4 d5bf 8c37 41bf d144 213b
00000040: 2153 86be 6bb1 093e aecd cebf f1ff c8bd
00000050: 95c0 863f e203 243f ecf8 8fbf c1c1 93be
00000060: f709 a73f cbe4 5ebe 763d abbe 48cf 14be
00000070: a7fd 48bf c387 003f 19e9 843f 1b3f e0be
00000080: 7c99 36bf 48d5 85bf d9b7 57bf 5e2d c83e
00000090: 2f58 39bf f715 2d3f 8ca1 81be 76e8 a4bc
000000a0: b609 0a3e 199b 8abf c9a4 283f 0a36 3dbf
000000b0: 889b 423f 1a5b 83be c5af c4bd 7f2c 433f
000000c0: 1a5d 1f3f e96b 493f 8464 7abe e0a1 493f
000000d0: e4ef ecbd fb15 60be 946a 243e 9aee f63c
000000e0: 8600 23bf b710 823f a659 c2be 7bed afbe
000000f0: 84ad 3abf e615 19bd 52f7 933d ab8a 6abf
00000100: ff6a 3a3e 340b 00be 7f48 ad3d dd93 74bd
00000110: 3ff1 0cbd 7e44 a63d d9e4 1b3d 0083 c63c
00000120: 4695 fc3c 0428 33be 0eb8 683c b624 8abc
00000130: 3d49 95bd 87e5 893b 93a6 223c 2065 92be
00000140: f98b b03c 4172 9ebd 872f a0bd ef87 9abd
00000150: 502f c4bd b12a af3d 7335 3cbd 36a2 cfba
00000160: f252 8c3d 16c7 003d 3943 883d e118 e63d
00000170: 61c8 7f3d d8f8 46bd 1282 5b3d 081f c8bc
00000180: cc71 e33d 80ce 64bd eae9 bebd 2159 82bc
00000190: a19c ec3c 2fe3 8cbd 7a01 dabc eb3b 92be
000001a0: 43f9 843d 2025 9cbd 74a0 543c e1c4 b13c
000001b0: 42e6 c4bb e6bc 953e 64fc 3c3d d841 cdbc
000001c0: 9172 9ebd 0971 a6bd cd06 84be e319 ebbb
000001d0: 72cb e1bd 77cc f4bd ba41 633e 3025 9cbd
000001e0: e429 7b3c 9349 b5bc 3e23 eebc 134e 883c
000001f0: 90de d43d c210 fcbd 9865 a63e 9c4c 5e3d
00000200: 9176 383e 13ec 83be ef82 fe3b e7fb 873d
00000210: 08bc 003e 93dc 37bd f1b4 31be 9f5f 953b
00000220: d729 803b f816 173e 1c74 23bd e922 053e
00000230: 5d54 ddbd 494b a43c 091f ffbd 926a 36bd
00000240: 28d1 2ebd a1e9 43bd ddb2 6cbc 07ed 49be
00000250: 7bfc dbbd e870 6cbb dbc2 113d a5fd 1bbd
00000260: cd22 213d 37f9 b83d 6baf dd3c 3cff c13d
00000270: d500 6d3d 9bd3 aa3d d2a7 b5bd d376 3abd
00000280: f16d dbbc c253 5bbd 2532 de3c 1314 933d
00000290: a7b6 1cbc 716f 25bc bcb1 50bc b89d f93d
000002a0: 9512 c9bd 04f3 59bc 9f6e 873a eb16 9fbd
000002b0: 4a24 9ebd 8b9a 8e3c b9b3 ac3c a8b9 edbd
000002c0: 56e2 683b 2e5f 29be ed73 1c3f 9321 1f3d
000002d0: b380 093d 744e 8fbc 8a9f 1fbe 0c88 3f3e
000002e0: 5b21 043d 2a81 54bd 8106 903e c811 eebd
000002f0: ddac 603d 14c9 6dbe 1207 86bc 2891 c9bc
00000300: 039d bd3d 6136 a73b c651 2c3c f7ce e4bc
00000310: 26e9 5e3d fc67 1e3d 6b13 113d b676 d1bd
00000320: 9ae2 373c 9a27 88bd 899e 093d 9022 42bd
00000330: b007 81bd fd0b 8e3b 2223 e63c cabe 4fbd
00000340: 9107 b4bc 0f35 533d e096 6abc 3984 31bc
00000350: b60e c3bb 464b 48bd 869a 1fbd e619 83bd
00000360: 1285 03bd 59cd ce3d 3246 d3bd 8fbe 153e
00000370: 52a5 2ebd 7d1c a73d c874 b4bc 1a16 11bd
00000380: 3f66 363b 4043 10ba 7f11 10bd a428 38be
00000390: 9503 efbc c798 9cbd 2881 ccbc 13ad b8bc
000003a0: 842b cc3d b89e ebbc a216 723a 7f6b 063c
000003b0: c4bb 553d 07b3 98bc ace8 c1bc 09b5 dabd
000003c0: f7c4 ce3d 0f7d 023d 7332 29bd eb88 2f3d
000003d0: 54e5 a33d bd49 fbbb 05aa 11bd b894 90bc
000003e0: 1118 9fbd 48dc 6f3c 0a7d 543d f794 d83d
000003f0: a063 49bc 66ad 77bd 2faf 86bd 1ab6 7bbd
0.83115184 -0.5804979 -1.4686341 -1.6391422 -0.26959667 -0.28979242 -0.4603466 -0.4307375
-0.3069072 0.3835405 -0.025787821 0.9363336 -0.57245594 -1.6710503 -0.7547538 0.0024607668
-0.26235297 0.13446586 -1.6156518 -0.09814442 1.0527521 0.64068425 -1.124784 -0.2885876
1.3049916 -0.21766965 -0.33445328 -0.14532197 -0.7851204 0.50207156 1.0383636 -0.43798146
-0.7132795 -1.0455713 -0.84264904 0.39097112 -0.7240018 0.6761164 -0.25318563 -0.020130377
0.13480267 -1.0828582 0.6587644 -0.7391058 0.7601857 -0.25655442 -0.09603838 0.7623977
0.62251437 0.7868028 -0.24452406 0.78762627 -0.11569193 -0.21883385 0.16056281 0.030143071
-0.63672674 1.0161351 -0.3795902 -0.3436087 -0.72921014 -0.0373744 0.07224907 -0.9161784
0.18204878 -0.12504274 0.08461093 -0.059711326 -0.034409758 0.081185326 0.038060043 0.024232388
0.030832898 -0.17495733 0.014204038 -0.016863208 -0.0728936 0.00420827 0.00992741 -0.28592777
0.02155112 -0.07736636 -0.07821565 -0.075454585 -0.09579337 0.085530646 -0.04594941 -0.0015841189
0.06851758 0.031439863 0.06653447 0.11235214 0.062446956 -0.04857716 0.05359084 -0.02442886
0.111056894 -0.055860996 -0.09321959 -0.01591164 0.02888328 -0.06879269 -0.026612032 -0.2856134
0.064928554 -0.076242685 0.012977708 0.021700324 -0.006008894 0.2924568 0.046139136 -0.02505581
-0.077366956 -0.081270285 -0.2578644 -0.007174717 -0.11025132 -0.11953061 0.22193041 -0.076242805
0.015329812 -0.02212981 -0.02906954 0.016638791 0.10394013 -0.12307884 0.32499385 0.05427228
0.1801398 -0.25766048 0.0077670733 0.066398434 0.12571728 -0.04488809 -0.1735418 0.004558518
0.0039112377 0.14754856 -0.039905652 0.13001598 -0.10807107 0.02005543 -0.12457091 -0.044535227
-0.042679936 -0.047830228 -0.014446941 -0.19719325 -0.10741516 -0.003607804 0.03558622 -0.03808369
0.03933983 0.09031909 0.027061185 0.0947251 0.05786212 0.08341142 -0.088699 -0.045523476
-0.026785823 -0.053546675 0.02712352 0.07181563 -0.009565032 -0.0100973705 -0.012737688 0.121882856
-0.09817997 -0.013302568 0.001033265 -0.07768043 -0.07721765 0.017407676 0.021081792 -0.11607677
0.0035535297 -0.16540214 0.6111439 0.03885038 0.033570003 -0.017493464 -0.15588203 0.18704242
0.032258373 -0.051880993 0.28129962 -0.11624485 0.054852355 -0.23221236 -0.016360793 -0.024605349
0.09258463 0.005102918 0.010517543 -0.02793072 0.054421566 0.038673386 0.03541891 -0.102277204
0.01122346 -0.066481784 0.033598457 -0.047396243 -0.063002944 0.004334925 0.028092925 -0.05071906
-0.021976264 0.051564272 -0.014318198 -0.010834747 -0.0059526814 -0.04889991 -0.038965724 -0.06401424
-0.032109328 0.10097761 -0.10316123 0.14623474 -0.04263813 0.081597306 -0.022028342 -0.03542147
0.002783194 -0.0005503185 -0.035172936 -0.17984253 -0.029176513 -0.076463275 -0.02496393 -0.022543466
0.099692374 -0.028762206 0.000923494 0.00820434 0.05218102 -0.018640054 -0.023670517 -0.10679061
0.10096162 0.031857546 -0.041307878 0.042855185 0.08002725 -0.0076687024 -0.035562534 -0.01764904
-0.07768262 0.0146399215 0.05187706 0.10575288 -0.012291819 -0.0604681 -0.06576382 -0.061452962

cell.gc_h.bias f4 [64]
00000000: aa90 76bd e15d c33b 7ba0 d4bd 1474 293d
00000010: 578a 003c a539 1c3f f534 3fbe 2b50 6e3b
00000020: 7b60 eb3d 9134 e03c 9e90 8a3d b22e 183e
00000030: 564d 003e 60e8 cdbc e7d8 c9bd 7ef5 803d
00000040: d8f5 3bbe e2a6 9e3d d831 13be fce1 573e
00000050: 3bf0 d5bc 7f8c 1fbd 3a00 f9bc 9c4a 6b3c
00000060: a8fc 893d 64ff c2bd 9114 cebd bcea 3b3d
00000070: 6e9b a23c 0229 aabc b434 763e 91ca b2bd
00000080: c1ed b4bd c760 26be 8211 403d bd88 c73d
00000090: bee3 3bbe 299d 8abd 08fb 05bd 7728 70bc
000000a0: 4736 773e 1433 03be 4e7c 673d d490 2d3e
000000b0: 0ef5 acbd 9c85 b23e f2f0 55be 5688 6e3e
000000c0: ab11 983d 18af 28be 7ccc 453d 5a69 02be
000000d0: 8336 15be c41a a03d cf14 88be 1c57 e23d
000000e0: c65f 35bc 637c 2abc d758 bdbc 8b4e c5bc
000000f0: d07a a4bd 6d3d 973e fad5 e4bd c627 f6be
-0.060196556 0.005962119 -0.10382172 0.041370466 0.007845483 0.6102546 -0.18672545 0.0036363702
0.114930116 0.027368816 0.06765865 0.14861563 0.12529501 -0.02513522 -0.09855824 0.06296824
-0.183555 0.07746674 -0.14374483 0.210823 -0.026115527 -0.038952347 -0.030395616 0.01436105
0.067376435 -0.09521368 -0.100625165 0.045878157 0.019849505 -0.020771507 0.24043542 -0.08730043
-0.088344105 -0.16247855 0.046891697 0.09742878 -0.18348595 -0.06768257 -0.032710105 -0.014658085
0.24141799 -0.12812454 0.05651503 0.16949779 -0.08445178 0.3486756 -0.20892695 0.23294196
0.07425245 -0.16473043 0.048290715 -0.12735501 -0.14571576 0.07817605 -0.26578376 0.11051771
-0.011070197 -0.010405633 -0.023113651 -0.024085304 -0.08031237 0.29539052 -0.11173625 -0.4807722

cell.gc_h.A_hat f4 [255, 255]
00000000: aaaa 2a3f 0000 0000 0000 0000 0000 0000
00000010: 0000 0000 0000 0000 0000 0000 0000 0000
00000020: 0000 0000 0000 0000 0000 0000 0000 0000
00000030: 0000 0000 0000 0000 0000 0000 0000 0000
00000040: 0000 0000 0000 0000 0000 0000 0000 0000
00000050: 0000 0000 0000 0000 0000 0000 0000 0000
00000060: 0000 0000 0000 0000 0000 0000 0000 0000
00000070: 0000 0000 0000 0000 0000 0000 0000 0000
00000080: 0000 0000 0000 0000 0000 0000 0000 0000
00000090: 0000 0000 0000 0000 0000 0000 0000 0000
000000a0: 0000 0000 0000 0000 0000 0000 0000 0000
000000b0: 0000 0000 0000 0000 0000 0000 0000 0000
000000c0: 0000 0000 0000 0000 0000 0000 0000 0000
000000d0: 0000 0000 0000 0000 0000 0000 0000 0000
000000e0: 0000 0000 0000 0000 0000 0000 0000 0000
000000f0: 0000 0000 0000 0000 0000 0000 0000 0000
00000100: 0000 0000 0000 0000 0000 0000 0000 0000
00000110: 0000 0000 0000 0000 0000 0000 0000 0000
00000120: 0000 0000 0000 0000 0000 0000 0000 0000
00000130: 0000 0000 0000 0000 0000 0000 0000 0000
00000140: 0000 0000 0000 0000 0000 0000 0000 0000
00000150: 0000 0000 0000 0000 0000 0000 0000 0000
00000160: 0000 0000 0000 0000 0000 0000 0000 0000
00000170: 0000 0000 0000 0000 0000 0000 0000 0000
00000180: 0000 0000 0000 0000 0000 0000 0000 0000
00000190: 0000 0000 0000 0000 0000 0000 0000 0000
000001a0: 0000 0000 0000 0000 0000 0000 0000 0000
000001b0: 0000 0000 0000 0000 0000 0000 0000 0000
000001c0: 0000 0000 0000 0000 0000 0000 0000 0000
000001d0: 0000 0000 0000 0000 0000 0000 0000 0000
000001e0: 0000 0000 0000 0000 0000 0000 0000 0000
000001f0: 0000 0000 0000 0000 0000 0000 0000 0000
00000200: 0000 0000 0000 0000 0000 0000 0000 0000
00000210: 0000 0000 0000 0000 0000 0000 0000 0000
00000220: 0000 0000 0000 0000 0000 0000 0000 0000
00000230: 0000 0000 0000 0000 0000 0000 0000 0000
00000240: 0000 0000 0000 0000 0000 0000 0000 0000
00000250: 0000 0000 0000 0000 0000 0000 0000 0000
00000260: 0000 0000 0000 0000 0000 0000 0000 0000
00000270: 0000 0000 0000 0000 0000 0000 0000 0000
00000280: 0000 0000 0000 0000 0000 0000 0000 0000
00000290: 0000 0000 0000 0000 0000 0000 0000 0000
000002a0: 0000 0000 0000 0000 0000 0000 0000 0000
000002b0: 0000 0000 0000 0000 0000 0000 0000 0000
000002c0: 0000 0000 0000 0000 0000 0000 0000 0000
000002d0: 0000 0000 0000 0000 0000 0000 0000 0000
000002e0: 0000 0000 0000 0000 0000 0000 0000 0000
000002f0: 0000 0000 0000 0000 0000 0000 0000 0000
00000300: 0000 0000 0000 0000 0000 0000 0000 0000
00000310: 0000 0000 0000 0000 0000 0000 0000 0000
00000320: 0000 0000 0000 0000 0000 0000 0000 0000
00000330: 0000 0000 0000 0000 0000 0000 0000 0000
00000340: 0000 0000 0000 0000 0000 0000 0000 0000
00000350: 0000 0000 0000 0000 0000 0000 0000 0000
00000360: 0000 0000 0000 0000 0000 0000 0000 0000
00000370: 0000 0000 0000 0000 0000 0000 0000 0000
00000380: 0000 0000 0000 0000 0000 0000 0000 0000
00000390: 0000 0000 0000 0000 0000 0000 0000 0000
000003a0: 0000 0000 0000 0000 0000 0000 0000 0000
000003b0: 0000 0000 aaaa aa3e 0000 0000 0000 0000
000003c0: 0000 0000 0000 0000 0000 0000 0000 0000
000003d0: 0000 0000 0000 0000 0000 0000 0000 0000
000003e0: 0000 0000 0000 0000 0000 0000 0000 0000
000003f0: 0000 0000 0000 0000 0000 0000 0000 0000
0.6666666 0.0 0.0 0.0 0.0 0.0 0.0 0.0
0.0 0.0 0.0 0.0 0.0 0.0 0.0 0.0
0.0 0.0 0.0 0.0 0.0 0.0 0.0 0.0
0.0 0.0 0.0 0.0 0.0 0.0 0.0 0.0
0.0 0.0 0.0 0.0 0.0 0.0 0.0 0.0
0.0 0.0 0.0 0.0 0.0 0.0 0.0 0.0
0.0 0.0 0.0 0.0 0.0 0.0 0.0 0.0
0.0 0.0 0.0 0.0 0.0 0.0 0.0 0.0
0.0 0.0 0.0 0.0 0.0 0.0 0.0 0.0
0.0 0.0 0.0 0.0 0.0 0.0 0.0 0.0
0.0 0.0 0.0 0.0 0.0 0.0 0.0 0.0
0.0 0.0 0.0 0.0 0.0 0.0 0.0 0.0
0.0 0.0 0.0 0.0 0.0 0.0 0.0 0.0
0.0 0.0 0.0 0.0 0.0 0.0 0.0 0.0
0.0 0.0 0.0 0.0 0.0 0.0 0.0 0.0
0.0 0.0 0.0 0.0 0.0 0.0 0.0 0.0
0.0 0.0 0.0 0.0 0.0 0.0 0.0 0.0
0.0 0.0 0.0 0.0 0.0 0.0 0.0 0.0
0.0 0.0 0.0 0.0 0.0 0.0 0.0 0.0
0.0 0.0 0.0 0.0 0.0 0.0 0.0 0.0
0.0 0.0 0.0 0.0 0.0 0.0 0.0 0.0
0.0 0.0 0.0 0.0 0.0 0.0 0.0 0.0
0.0 0.0 0.0 0.0 0.0 0.0 0.0 0.0
0.0 0.0 0.0 0.0 0.0 0.0 0.0 0.0
0.0 0.0 0.0 0.0 0.0 0.0 0.0 0.0
0.0 0.0 0.0 0.0 0.0 0.0 0.0 0.0
0.0 0.0 0.0 0.0 0.0 0.0 0.0 0.0
0.0 0.0 0.0 0.0 0.0 0.0 0.0 0.0
0.0 0.0 0.0 0.0 0.0 0.0 0.0 0.0
0.0 0.0 0.0 0.0 0.0 0.3333333 0.0 0.0
0.0 0.0 0.0 0.0 0.0 0.0 0.0 0.0
0.0 0.0 0.0 0.0 0.0 0.0 0.0 0.0

out_proj.weight f4 [1, 64]
00000000: a6ec 8b3e 327b 0cbf b6de f3be 2260 22bf
00000010: 3f35 4b3e ac93 5b3d f1b0 92be ef7d b8be
00000020: a7f6 61be 63cb d33e 8fa6 98be 144a eb3e
00000030: fe86 b1be b462 26bf 26dd 98be 4fb5 82bd
00000040: 5ed1 16be 069a 0fbe cf23 03bf 6dea 413c
00000050: 6fc0 c93e 41ea e53e 5537 d4be a158 9fbd
00000060: 1943 983e 3add 37be 27cd 88be d9af 793d
00000070: fd20 c7be 95d6 ad3e ad20 e4bd 73e7 6f3d
00000080: 2096 9ebe 0dae 5dbf f307 00bf dccd 813e
00000090: 5faf 01bf e6e4 a23e 77cb 91be 83da 333c
000000a0: 3738 a53d eb1c c0be 697b fa3e d713 0dbf
000000b0: ed58 023f 20d3 e2bc 746f 39bd e34f 403e
000000c0: 3ae7 8f3e 2fab e33e 87be 94be 869f 703e
000000d0: 5517 09be 4fba cbbc bef9 80bd b0d6 86be
000000e0: 218f 00bf 0e24 053f fb50 a2be f40c e43d
000000f0: adff dbbe d707 26bc 550e 9cbd d2b3 dfbe
0.27328986 -0.5487548 -0.47630852 -0.6342794 0.1984453 0.053607628 -0.2865062 -0.3603358
-0.22066747 0.4136611 -0.29814574 0.45954955 -0.34673303 -0.6499436 -0.29856223 -0.06382238
-0.14728305 -0.14023599 -0.51226515 0.011835677 0.39404628 0.44905284 -0.41448465 -0.077805765
0.2973869 -0.17955485 -0.2671902 0.060958717 -0.38892356 0.33952776 -0.11139045 0.058570337
-0.3097391 -0.86593705 -0.5001213 0.2535237 -0.5065822 0.3181526 -0.28475544 0.01097739
0.08067363 -0.37522063 0.4892228 -0.551084 0.5091694 -0.027688563 -0.045272306 0.18780474
0.281061 0.4446654 -0.2905161 0.23498353 -0.13387807 -0.024869112 -0.062976345 -0.2633567
-0.502184 0.5200814 -0.31702408 0.11135283 -0.42968503 -0.010133705 -0.07619921 -0.4369188
